model/model.pth (torch, 18240 bytes, 4 tensors)

linear1.weight f4 [256, 11]
000000 c9 02 0f 3e b7 63 29 3e 46 43 30 be de 44 98 be
       0.13965906 0.16541944 -0.17213163 -0.29740041
000010 2b 5e c3 be 24 e5 ab 3e e1 78 82 3d 75 af 9b be
       -0.38157782 0.33573258 0.06370712 -0.304073
000020 26 e1 3a 3e db 39 ac be 71 47 d6 be bd fc 88 be
       0.1824995 -0.3363789 -0.4185138 -0.26755324
000030 07 7c 89 3e c8 ae 23 be 4c a0 ff bc 87 c1 51 be
       0.26852438 -0.15984643 -0.031204365 -0.20483981
000040 d1 86 75 3e 89 8a 2c 3e 80 9e 1f 3e d8 c1 9f be
       0.2397721 0.16849722 0.15587807 -0.3120258
000050 8c 68 a1 be 28 e6 10 be 5f 3f 8c be b5 b7 50 3d
       -0.31525075 -0.14150298 -0.27392098 0.050956447
000060 a5 3d 58 3e 6e 91 cc 3c 39 68 3c 3e 79 75 35 be
       0.21117266 0.02497169 0.18399133 -0.17720594
000070 27 4e 76 be c1 f2 0b be fd 29 4c be e8 71 fd bd
       -0.2405325 -0.13666822 -0.19937892 -0.123752415
000080 b6 22 3e 3e 84 77 d0 be 40 68 95 be 7a 19 4c 3e
       0.18567929 -0.40716183 -0.291811 0.19931594
000090 38 ac ad bd 4e f6 8b 3d 0c 5f a6 3d f1 ae e0 bd
       -0.08480114 0.06834088 0.081235975 -0.109708674
0000a0 68 46 83 be 2b 3a 4d be b7 27 99 3c 80 93 55 be
       -0.25639653 -0.2004172 0.018695695 -0.20857048
0000b0 5d 07 8a be 53 e7 de 3d ca 13 3f be db 59 3e 3e
       -0.26958743 0.10883965 -0.18659893 0.18588965
0000c0 65 8c 71 be 63 50 d3 be 63 f9 0f bd 7d 69 a4 bd
       -0.23588713 -0.41272268 -0.035149943 -0.08027933
0000d0 7a f1 0e bd 1f 40 5e 3e 53 46 3a 3d 62 f4 6b 3e
       -0.03489826 0.21704148 0.045477223 0.23042443
0000e0 34 ac a7 3e b0 3b 4b be 06 d1 88 3e c7 ec 78 be
       0.32748568 -0.19846988 0.26721972 -0.24309073
0000f0 35 ca 16 bf eb 68 96 be b8 97 b3 3d 79 ad 23 be
       -0.58902293 -0.2937692 0.087691724 -0.15984143
000100 df 61 a7 3d 6d 39 0f be ab 9f 7d be f0 00 ad be
       0.08172964 -0.1398675 -0.2476794 -0.33789778
000110 8f 34 05 3e eb d5 b1 be c5 2f 08 3d cc 9b ab be
       0.13008331 -0.3473352 0.03324868 -0.335173
000120 97 8d 6a be 1e 4c 36 3e 8e ea 01 be 1e 6b b7 bc
       -0.22905575 0.17802474 -0.12687132 -0.022389945
000130 a9 aa a9 3d 2a 5a 25 3e d5 a6 80 be 0a 11 99 3c
       0.08284504 0.16147676 -0.25127283 0.018684883
000140 6a 23 ae be 7f 70 07 bc 5c 54 42 3e ca 95 d9 bd
       -0.34011394 -0.008266567 0.18977493 -0.10624273
000150 08 67 7d be b6 43 c2 be 65 ee 15 be 28 b0 a8 3e
       -0.24746335 -0.37942284 -0.14641722 0.32946897
000160 54 9b da 3d ee 4e 36 be 3a 28 4a be b9 ca 80 3d
       0.10674158 -0.17803547 -0.19741908 0.06288666
000170 1e 99 80 3d 9e 5a 97 3e 75 60 10 3e 3e b8 65 3e
       0.06279205 0.29561323 0.14099295 0.22433564
000180 e1 b6 b9 3e c3 93 23 3e 81 52 2f 3e 5f 55 ec 3d
       0.36272338 0.15974335 0.17121316 0.11539721
000190 dc 88 23 bd f8 d2 a0 be 39 cb 8a be da d0 b5 be
       -0.03992544 -0.31410956 -0.27108172 -0.35510904
0001a0 e4 1b 59 3e d3 0a 47 3e f5 24 ef bd ba d9 02 be
       0.21202046 0.19437723 -0.11676971 -0.12778369
0001b0 81 7b c8 3e 92 2c 2d 3e 12 9d 91 3e 51 44 57 3e
       0.39156726 0.16911533 0.28440148 0.21022154
0001c0 54 74 8f be eb ba 5d 3c 68 18 df bd 93 51 88 be
       -0.2801844 0.013533334 -0.10893327 -0.26624736
0001d0 87 e9 08 bd 4c 36 11 3e 53 f2 45 be 6c 90 48 be
       -0.033425834 0.14180869 -0.1933072 -0.19586343
0001e0 15 f0 ce 3c c8 a2 d3 3e 3f 68 91 3e 97 a6 9f 3e
       0.025260964 0.4133513 0.28399846 0.31181785
0001f0 5c 33 78 be 92 a8 ce bd 81 02 2a 3e 9e 3f 77 3e
       -0.24238342 -0.10090746 0.16602518 0.24145362
000200 61 95 e4 bd d4 bb 2b be 0f 78 91 be 0f 89 96 3e
       -0.11161304 -0.1677087 -0.2841191 0.29401442
000210 e4 e4 f3 b9 eb e1 ff bd 6c f1 33 3e d5 b4 00 3e
       -0.0004651911 -0.12494262 0.17572564 0.12568982
000220 af 1a 4f 3d f7 68 0f bd bd e3 90 3e 5e 2e 28 3e
       0.050562557 -0.03501221 0.2829875 0.16423938
000230 2a 57 e4 bd e0 c4 9b 3e b6 aa 4f 3e 86 41 28 be
       -0.11149438 0.3042364 0.20279965 -0.16431245
000240 28 66 50 3e ea 12 08 be 1d 8e 1f bc 06 5e 28 3e
       0.2035147 -0.13288465 -0.009738472 0.16442117
000250 df 97 52 3e 6d a6 49 3e c2 f1 91 be 95 5c ad 3d
       0.20565747 0.19692393 -0.2850476 0.08464924
000260 af 5e 00 be 2d 8c 97 be 69 5a e8 be 3e bb 7a 3e
       -0.12536119 -0.29599133 -0.45381477 0.2448549
000270 20 11 f7 3a 9e 3c 86 3e 6c e1 cb be 06 d7 46 be
       0.0018849708 0.26218122 -0.3982042 -0.19417962
000280 fb 04 a5 bd 0e 9d 0c be b1 b9 ee bd 3f b0 d3 3c
       -0.080575906 -0.13731787 -0.116565116 0.025840877
000290 c0 6c 99 bd 64 c7 90 bd c8 3c 93 3e 33 2b 88 be
       -0.074914455 -0.07069281 0.2875731 -0.26595458
0002a0 c6 61 28 be 80 6a 43 3e 60 87 b4 be 7b be 3b 3e
       -0.16443548 0.19083595 -0.35259533 0.18334381
0002b0 e1 48 4f 3e 74 dd a1 bd 4f 9f c4 3d 46 5d d5 bd
       0.20242645 -0.07903567 0.09600698 -0.10418181
0002c0 fd 02 75 3e 76 7c ed bd e6 16 7f 3e 37 6c af be
       0.23926921 -0.11596005 0.24911079 -0.3426225
0002d0 f5 e2 56 3e 40 80 bc 3e c6 b2 da 3d fd 47 13 be
       0.20985015 0.36816597 0.106786296 -0.1438293
0002e0 fc 2a ab bd 48 ae 6b 3e 20 3e e7 3d 77 f5 a6 bd
       -0.08357808 0.23015702 0.11291146 -0.081522875
0002f0 d8 b7 22 be 8c da 32 bd 84 c3 96 3e f5 b3 c9 be
       -0.15890443 -0.043665454 0.29446042 -0.3939511
000300 19 60 63 3d d9 d5 57 3e 99 9d b3 bd 47 a1 25 bf
       0.055511568 0.2107767 -0.08770294 -0.64699215
000310 0b f3 d4 3e 26 19 27 bd 38 bc 84 3e 18 b9 90 bb
       0.41591677 -0.040795468 0.2592485 -0.004416596
000320 00 6a 60 be 37 6a 79 3e 8d 34 46 be 7e 34 12 be
       -0.21915436 0.24356924 -0.19355984 -0.14277837
000330 5d 3b 23 3d b3 03 d2 bd df c1 cb bc 10 d6 89 be
       0.039851535 -0.10254612 -0.024872718 -0.2692113
000340 93 07 86 3d 23 57 78 3e be a2 e2 3e 05 ce 2a be
       0.065444134 0.2425199 0.44264787 -0.16680153
000350 2b e7 fc 3c a2 ee a6 be 0d 5e 8c bd 9c c5 c2 3d
       0.030871948 -0.32603937 -0.06853876 0.09510347
000360 4f f8 b4 bd d1 e8 65 3e 23 25 f5 3d 99 7d 8a 3e
       -0.088364236 0.22452094 0.11969974 0.27048948
000370 6b 8f 8c be 8d c5 89 3e 4b 38 5e 3e e9 2c d3 3d
       -0.2745317 0.26908532 0.21701162 0.103113
000380 4c 8c 86 3c e2 a3 89 be 74 43 89 3e 04 df af be
       0.01642432 -0.26882845 0.26809275 -0.34349835
000390 6d b8 12 be 8d 82 86 3e 1f 43 33 be 10 52 a9 3c
       -0.14328165 0.26271477 -0.17506073 0.020669013
0003a0 5d 4e 82 3e 5a af af 3e 1c 61 16 be f6 ef 89 be
       0.2545041 0.3431347 -0.14685482 -0.26940888
0003b0 d4 55 09 3e ab c0 0b be 92 4a a6 bd 84 cf ac 3d
       0.13411647 -0.13647716 -0.08119692 0.08438018
0003c0 a7 c7 3b 3e 67 0d 82 3e 8e c0 dd bb bf 25 8a be
       0.1833788 0.2540085 -0.006767339 -0.26981923
0003d0 4d dc 99 be 10 fd 2b be 31 b5 ef bd a5 64 71 be
       -0.3005089 -0.16795754 -0.117044814 -0.23573549
0003e0 39 1d 46 3b 29 b6 93 be fe b1 89 bc 4e 5d 2e be
       0.003022982 -0.28849915 -0.016808506 -0.1702778
0003f0 b9 a6 c1 3d 75 5f 09 3e b6 96 f2 3e 47 6f 12 3d
       0.09455628 0.1341532 0.47380608 0.035750654

linear1.bias f4 [256]
000000 6d 00 5a 3e 21 84 1d be 4f ce a4 be cc 5a 83 3e
       0.21289225 -0.15382434 -0.3218865 0.2565521
000010 04 c5 62 be f2 26 c1 3e d5 e6 0e be 15 ca 61 3e
       -0.22145468 0.37725025 -0.13955243 0.22049744
000020 d1 c3 7d be 17 08 ba 3c 39 cd 1d 3e 6e 1a 24 3e
       -0.2478173 0.022708936 0.15410317 0.16025707
000030 3e 11 59 3e 14 ac b1 be f4 51 0d 3e b2 79 1c 3e
       0.21197984 -0.34701598 0.13800794 0.15280798
000040 55 66 46 3e 8e 86 cd bd 3e 88 7a be fa 5b 17 be
       0.19374974 -0.1003543 -0.24466035 -0.1478118
000050 1b 69 53 be 1e 1c 0e 3d d3 65 0e be b0 ed 83 be
       -0.20645563 0.034694783 -0.1390603 -0.2576728
000060 c4 74 83 be 4b 42 4e 3e 4e 19 f0 bd 40 a1 0f 3e
       -0.25675023 0.20142476 -0.117235765 0.14026356
000070 74 9e 1a 3e 31 fa 05 3e d1 88 db bd 2b 80 23 3e
       0.15099508 0.13083722 -0.10719455 0.15966861
000080 a5 56 cb 3d 0a c9 04 3e 98 7c 8a bb 4b fb c0 be
       0.099286355 0.12967315 -0.0042262785 -0.3769172
000090 9b 75 3b 3e 25 bc c1 bb 77 8d 36 be ac de 4d be
       0.18306582 -0.005912321 -0.17827402 -0.20104474
0000a0 94 41 ba 3d ef f6 88 be d6 79 96 3d 9f 72 63 3e
       0.09094539 -0.26750895 0.07347457 0.22211693
0000b0 e3 1c 3d be cc 3f 87 3e 3d fe b4 3d d4 f2 a6 be
       -0.1846805 0.2641586 0.088375546 -0.32607138
0000c0 2c 7b 88 be a2 93 dc bd bc 84 f0 3c 0e 40 e0 bd
       -0.26656473 -0.10770346 0.029360168 -0.109497175
0000d0 b6 cf df bc 65 1b 2a 3e 26 5b 0c bc 33 93 0f be
       -0.027320724 0.16612013 -0.008566653 -0.14020996
0000e0 18 50 11 3e 40 b0 6f bd 36 9a 9e be e7 1a 3e 3e
       0.1419071 -0.058517694 -0.3097703 0.1856495
0000f0 36 cc 5d 3e 77 b8 b8 bd d8 33 85 be 7f a3 3f be
       0.21659932 -0.09019559 -0.26016116 -0.18714713
000100 d5 f6 f1 bd 89 6e 63 3e 13 a0 36 3e 20 a9 97 be
       -0.118146576 0.22210135 0.17834501 -0.2962122
000110 77 57 8e bc 4b a9 52 be 44 c5 b8 bd ae ea 76 bd
       -0.01737569 -0.20572393 -0.090220004 -0.0602824
000120 c8 52 68 3e e6 ac 20 3e 52 41 91 3c 26 ca f3 3d
       0.22687829 0.15690956 0.017731342 0.11903791
000130 65 c9 36 bd 93 a4 10 be 8f e3 5e 3e 50 76 54 be
       -0.04462566 -0.1412528 0.21766494 -0.20748258
000140 51 33 00 3e 67 b7 80 3c 2a 7c fb 3d c7 eb 0e be
       0.12519576 0.015712453 0.12279542 -0.1395713
000150 a5 e1 0f 3e 90 f7 5e 3d e5 8c bf bd 48 8f 14 3e
       0.1405092 0.054435313 -0.093530454 0.14507782
000160 d8 fd 54 be 96 2e 82 3d 8a bd a7 be 28 e8 f4 3d
       -0.20799959 0.06356542 -0.32761794 0.11958343
000170 a5 3c 4e be 5c 35 06 3d 31 28 97 be 83 fb 7c 3e
       -0.20140322 0.03276573 -0.2952285 0.24705319
000180 1b 04 db bd 73 38 4b 3d 75 7a cf bd b1 b2 7f be
       -0.106941424 0.04961438 -0.10130779 -0.24970509
000190 99 56 52 3e 1a a4 56 bd 64 aa e0 3c ad 8c ef 3d
       0.20540847 -0.052402593 0.027424999 0.11696754
0001a0 91 5c 87 be 6d 79 99 bd f1 0f 9f 3c 89 73 9c be
       -0.2643781 -0.07493863 0.019416781 -0.30556896
0001b0 c3 f4 89 be 20 81 0b 3e a5 f8 02 3d ef 0d 21 be
       -0.2694455 0.13623476 0.031975407 -0.15727971
0001c0 c5 4a 6f 3e 02 57 1f 3e 5e c5 d7 b9 40 bb ef bc
       0.23368366 0.15560535 -0.00041155046 -0.029264092
0001d0 5f e6 94 be f6 65 0a bc e6 9c 1e be 0e a4 63 3e
       -0.2908201 -0.008447161 -0.1548954 0.2223055
0001e0 47 37 e1 3d a2 88 e0 bc 22 b8 4e be a8 0e 2a be
       0.109968714 -0.027408902 -0.20187429 -0.16607153
0001f0 67 87 d0 bc 6a fc d8 3d 6c c1 53 3b d7 c3 9d bd
       -0.02545519 0.10595019 0.0032311333 -0.07703369
000200 e1 f1 2c 3e c4 b3 95 be a2 cc 60 3e fd 4e 96 be
       0.16889144 -0.29238713 0.21953061 -0.29357138
000210 3a 9d 3a 3e 1d 8a b8 bd c5 b9 17 bd e7 c0 ec bd
       0.1822404 -0.09010718 -0.037042398 -0.11560231
000220 94 4b 7a be 8c 2f a9 be 81 39 9c 3d 76 6b d8 bd
       -0.24442893 -0.33044088 0.076281555 -0.105673715
000230 61 04 f6 bc d8 89 87 3e 7b d3 80 be f9 4a 91 be
       -0.030031385 0.26472354 -0.25161347 -0.28377512
000240 29 4b ab 3c b1 75 1f bc 7b 69 f8 bb f7 d7 c4 3d
       0.020909863 -0.00973265 -0.0075809336 0.096115045
000250 35 31 56 be c9 1d 14 3d 05 0a 76 3e 21 9e 46 be
       -0.20917208 0.036161218 0.2402726 -0.19396259
000260 3d 2d 04 be 59 00 14 3d 38 4a f8 3d 0e 4e 2d be
       -0.12907882 0.036133144 0.12123531 -0.16924307
000270 4d f1 25 3d 97 fb 3c be 55 3a 8e be c5 83 50 3e
       0.040513325 -0.18455349 -0.2777888 0.20362766
000280 e6 c7 28 be 57 f0 2b be 50 08 23 3e 08 0c 21 be
       -0.16482505 -0.16790901 0.1592114 -0.15727246
000290 f8 2f ca bd d3 e6 a9 3d ec 04 d6 bd 4e 91 ab bd
       -0.098724306 0.08295979 -0.104501575 -0.08377324
0002a0 e8 27 85 bd 17 bb 05 3d 4f d2 5f 3e 94 a4 63 3e
       -0.06501752 0.032649126 0.2185757 0.2223075
0002b0 5f 10 0e be 01 14 65 bd b5 47 54 be c0 14 f9 3d
       -0.13873433 -0.05592728 -0.20730479 0.12162161
0002c0 c4 7f 93 bd 92 79 5f be 0d c5 32 3e 24 78 d8 bd
       -0.07202104 -0.21823719 0.17457981 -0.1056979
0002d0 38 23 84 3e 79 28 d6 3a 73 05 f5 3c 83 64 96 be
       0.2580812 0.0016338966 0.029909825 -0.2937356
0002e0 10 66 11 3e e8 f9 82 bd ea e3 9a 3e af 0f 90 be
       0.1419909 -0.06395322 0.3025201 -0.28136966
0002f0 06 83 af bd 18 15 d3 3c fd d8 b8 be e1 43 8a 3d
       -0.085699126 0.025766894 -0.3610305 0.06751228
000300 28 e4 1f 3e ab c9 81 be 9b da fa 3d 76 32 0b 3e
       0.15614378 -0.25349173 0.12248727 0.13593468
000310 49 f8 14 be 4e ff e4 bd 16 bb 1f 3e 3a 49 4a 3d
       -0.14547838 -0.11181508 0.15598711 0.04938624
000320 6a 71 51 3d c3 05 7a 3e bf c2 80 bd 92 a8 08 3e
       0.05113355 0.2441626 -0.06287145 0.13345554
000330 23 91 8a 3e 1e 4f 62 3e d0 ce 5e be 7c 60 19 3e
       0.27063856 0.22100493 -0.2175858 0.14978212
000340 b5 80 5d 3d 5a 14 31 be dd 84 13 3e 96 c1 5b bd
       0.054077823 -0.1729292 0.14406152 -0.053651415
000350 02 33 4e be 4f e7 3e 3e 9b 03 c1 3c 3d 40 5c be
       -0.20136645 0.18642925 0.02356129 -0.2150888
000360 2f 37 57 3d 3d c7 4d be 90 15 23 bd 77 c8 37 bd
       0.05254286 -0.20095535 -0.039815485 -0.044868913
000370 df 32 21 3e 5b 32 23 bd 12 65 89 3d f9 34 a3 3c
       0.15742062 -0.039842945 0.06708731 0.01992272
000380 df 45 85 3c 93 c0 47 be c0 bc 02 3e 55 40 13 3e
       0.016268669 -0.19507055 0.12767315 0.1438001
000390 0d e1 2f 3e f5 84 1d 3e 8d 07 cc 3d 81 76 13 3e
       0.17175694 0.1538275 0.09962378 0.14400674
0003a0 0a 61 5d bd 4e 40 8d bb 9e 11 17 3e a7 cb f1 bd
       -0.05404762 -0.004310644 0.14752814 -0.11806422
0003b0 72 e6 65 be cb d3 82 bd 8a 68 63 bd e8 82 8a be
       -0.22451189 -0.063880526 -0.055519618 -0.27053
0003c0 1f b1 e3 bd 10 ed 4b 3d f7 28 5f be 7f 48 de bc
       -0.111177675 0.049786627 -0.2179297 -0.027134178
0003d0 ea 9a 0c 3e 95 8b 90 be 0d 67 8c 3e 59 99 a5 3e
       0.1373097 -0.28231493 0.27422372 0.32343557
0003e0 d7 8b b0 bd 94 4e 02 be 97 84 2d 3e 65 3f 1f 3e
       -0.08620422 -0.12725288 0.1694511 0.15551527
0003f0 5a cf 1b be f0 5f 6e be df fc 08 be 46 44 bc bb
       -0.15215817 -0.23278785 -0.13377713 -0.0057454435

linear2.weight f4 [4, 256]
000000 c7 d2 8b 3d 1a e2 8f 3d d8 f5 d5 bc 02 ef 32 3e
       0.06827312 0.07025547 -0.026118204 0.17473987
000010 18 55 2e 3d bb 88 95 bb b5 2e e5 3c ce b7 a9 bc
       0.04256162 -0.0045634187 0.027976373 -0.020717528
000020 2a 8f 85 bd cf dd b4 3e a1 48 08 bc a6 57 c7 bd
       -0.06521447 0.35325477 -0.008318097 -0.097335145
000030 00 56 7f bc 1d 6e 73 bc b4 bf dd 3e 1d 4e 78 3c
       -0.015584469 -0.014857796 0.4331032 0.015155342
000040 b7 ad 5c 3d bb 2b 50 3e 2a 01 d8 bd 47 35 a6 bd
       0.053876605 0.20329182 -0.10547097 -0.081156306
000050 50 c1 e5 bd 45 e9 b3 3c 80 ac cf bc a3 b2 88 3e
       -0.11218512 0.021961818 -0.02535081 0.2669879
000060 ba 1a 43 3d 71 f7 20 3d f8 8d 97 bc 06 d2 a3 bc
       0.04763291 0.03929848 -0.018500313 -0.019997608
000070 cf 31 80 bd eb 81 e2 bc cd d1 dc bd a1 03 99 bc
       -0.062595 -0.02764984 -0.10782204 -0.018678488
000080 18 06 8d bd 59 94 9f bd 89 e8 7b bd e0 93 84 bc
       -0.06885928 -0.07791967 -0.06150106 -0.016183794
000090 58 84 50 3d b2 c0 00 3d ff d5 30 3d 7b 2d f6 bd
       0.050907463 0.03143377 0.043172833 -0.120203935
0000a0 12 8e e9 3c 7c 72 78 bd e3 d3 97 3b 84 37 49 3c
       0.028510127 -0.060656056 0.004633413 0.012281302
0000b0 d0 48 c8 3b 88 22 84 3c f7 ce 63 bb b5 8d 38 bd
       0.0061121956 0.016129747 -0.0034760812 -0.045057017
0000c0 1a f0 10 be 2b 34 d7 bd 82 f7 4e bd e7 7e 76 bd
       -0.14154091 -0.10507997 -0.05052901 -0.060179617
0000d0 04 d8 6a bd 58 a7 42 be 07 50 a9 bd d8 93 87 3d
       -0.057334915 -0.19009149 -0.08267217 0.06619996
0000e0 b4 e7 2b 3d 0c ab 3c 3e 1f ed e2 3d 9c 94 ac bd
       0.041969016 0.18424624 0.110803835 -0.084267825
0000f0 b2 29 ad bc cf e1 9f bd 2f 85 af bc ff 07 ab 3c
       -0.021138046 -0.078067414 -0.021425812 0.020877836
000100 32 a8 25 be 1b 3b af 3b f3 93 4e 3d b0 00 62 bd
       -0.16177443 0.005347622 0.050434064 -0.055176437
000110 51 f4 b0 be 0f 86 81 be a8 09 86 3c 61 41 0e be
       -0.345614 -0.2529759 0.016362026 -0.13892128
000120 e5 1d 99 bd ba bf 15 3d 4b 7e 1a bd b8 ca 90 3d
       -0.07476405 0.036559798 -0.0377181 0.070699155
000130 f0 4a c5 3d a2 08 40 bd d7 eb 94 bd aa 99 cf bd
       0.09633434 -0.046883233 -0.072715454 -0.10136731
000140 78 13 91 bd 5e a5 e2 3c 93 37 72 bc 0d 67 55 3d
       -0.070837915 0.027666744 -0.014783758 0.05210023
000150 61 e3 c7 3b 7a cb 2d be 26 aa f7 3c 57 82 fe bc
       0.0061001037 -0.16972151 0.0302325 -0.03106801
000160 d2 bd 8f bd 78 eb c9 bd 5e c5 19 3e c3 8f ba bd
       -0.07018627 -0.09859365 0.15016696 -0.091094516
000170 0a 27 95 3e 48 99 53 bd 7a b6 af 3e a5 5d 08 3e
       0.29131347 -0.051659852 0.34318906 0.13316973
000180 4e e6 28 bd 1d f1 05 3f 68 fd e8 bc ab 85 4c 3e
       -0.04123526 0.52321035 -0.028441146 0.19972865
000190 4b 2b 8e bd 6b 24 41 3d 5a 45 73 3e c8 4c eb 3a
       -0.06941851 0.04715387 0.23756924 0.001795196
0001a0 80 b0 6f be c0 bc f3 3c 62 6d ed bd e5 0c e6 3d
       -0.23407173 0.029753089 -0.11593129 0.11232928
0001b0 9d d1 b5 bc f9 44 91 bd d9 09 15 3e 73 45 80 3e
       -0.022194678 -0.070932336 0.14554538 0.25052986
0001c0 1a 9a ff bd 43 ad 33 3e 87 2c a1 bd 37 c4 a0 bd
       -0.124805644 0.17546563 -0.07869821 -0.07849925
0001d0 b2 e3 2d be 6a 6b df 3d a7 fa 48 3e 9e 50 9a 3d
       -0.1698139 0.109091595 0.19626866 0.07534908
0001e0 d7 77 f2 bc b5 67 cf bd 48 73 cf bc aa 0c 46 3a
       -0.02959816 -0.101272024 -0.025323525 0.00075549877
0001f0 7e d5 dd 3c 53 9d a1 bd 05 20 cc 3d 5d 05 ce bd
       0.02707934 -0.07891335 0.09967045 -0.10059617
000200 3e 98 1e 3d 5b d7 39 be 7c 12 92 3d ab 01 d7 3b
       0.03871941 -0.18148558 0.07132432 0.006561478
000210 b3 32 69 bd 3f f3 dc 3d 39 31 af 3c 9c 4a a3 3d
       -0.056933116 0.10788583 0.021385776 0.07973215
000220 28 8d a7 bb 18 a3 f2 3d 0e fd 87 3d 0d 04 7a 3d
       -0.0051132627 0.11847514 0.06640063 0.06103902
000230 33 3b a4 3c a8 1f 44 3d a5 37 b6 bb d4 d3 33 bd
       0.02004776 0.047881752 -0.0055608326 -0.043903187
000240 f2 8c 2e 3e c4 60 12 3b 11 cd 72 bd 92 ba 43 3c
       0.17045954 0.002233551 -0.059277598 0.011946337
000250 80 f4 fc bd 97 c8 47 bd 97 dc a4 3d f8 4a af be
       -0.12351322 -0.04877528 0.08049887 -0.34236884
000260 9b 34 b3 bb cf 36 a3 bd d8 f6 12 3c 5c c8 1e 3e
       -0.0054689175 -0.07969438 0.008969985 0.15506119
000270 be 84 67 bc d0 18 2b 3b 67 87 d1 3d b7 32 e5 bb
       -0.014130769 0.0026107319 0.10230904 -0.006994571
000280 48 c4 5f bb b0 ab 81 bb 1c 26 82 bd 14 0b e6 ba
       -0.0034144092 -0.0039572343 -0.06354925 -0.0017550909
000290 76 04 81 3c 3e 26 10 be 84 bc 12 be d5 45 ff 3c
       0.015749197 -0.14077088 -0.14329726 0.031161228
0002a0 67 5f d1 bd 5e 25 38 bd 4b 74 b7 3d 89 db 05 3c
       -0.10223275 -0.04495751 0.08957728 0.008170017
0002b0 47 99 74 39 9f f8 8a bc d9 c8 f4 bd 25 b7 94 bb
       0.00023326754 -0.016964255 -0.11952371 -0.004538434
0002c0 c1 f0 c3 3c e5 4b ce bd 7a e9 a4 3b e9 16 85 3d
       0.023918511 -0.100730695 0.0050327154 0.064985104
0002d0 c8 60 3c 3d 9a 10 29 3e 3b c1 7b bd 2a 0d 8a bd
       0.045990735 0.16510239 -0.061463576 -0.06740792
0002e0 5a f7 ec 3c b2 54 c2 bd 07 d1 9c bd fc fd 49 be
       0.02892654 -0.094888106 -0.07657056 -0.19725794
0002f0 fd 95 b2 bc 41 9f ac be 08 78 a2 bd 66 8f d3 3d
       -0.021800036 -0.3371525 -0.079330504 0.103300855
000300 9b bd 85 3d 76 4f 54 bb 2c 90 68 3e ef 50 0b bd
       0.06530305 -0.0032395995 0.22711247 -0.03401273
000310 52 e5 62 be d2 be 55 b9 b2 34 54 3d 51 08 02 3d
       -0.22157791 -0.00020384349 0.051808067 0.031746212
000320 46 50 b6 bd db 61 3c 3d 0a 1b af bd 58 cb ed 3d
       -0.0890203 0.04599176 -0.08550079 0.1161105
000330 4a 12 4f 3d 34 9a 9b 3c 1b e3 f1 bc 26 76 33 3d
       0.05055455 0.018994428 -0.029527238 0.043813847
000340 3e 40 38 3d d1 a3 2d bd 31 17 c0 3c de 18 23 3c
       0.04498314 -0.042392556 0.023448559 0.009954659
000350 df e6 24 3d 5e b7 5e bd 56 1b 93 bd 4f b7 dc bd
       0.04025924 -0.05437409 -0.07182948 -0.10777151
000360 08 6b 82 3d 61 d9 10 be 59 f2 83 3e 38 17 ff b7
       0.06368071 -0.14145423 0.25770834 -3.040918e-05
000370 89 48 d9 3c 03 00 1c 3e 01 7d 48 3e 75 60 a7 bd
       0.026523845 0.1523438 0.19578935 -0.081726946
000380 27 e8 fe 3d ca 7f b3 3e c7 ee 4c bd 85 dd 54 bd
       0.12446623 0.35058433 -0.050032403 -0.05196907
000390 e2 36 da 3d 6b 13 2c 3e a1 6a 98 bc 33 e5 19 3e
       0.10654999 0.16804282 -0.018605532 0.15028839
0003a0 af 82 bf bd cc cf b7 bd 64 22 37 3d 1b 92 48 be
       -0.09351098 -0.08975181 0.04471053 -0.19586985
0003b0 59 00 27 3d f6 c5 b3 bd 13 84 05 3c fc 06 ae 3e
       0.040771816 -0.087779924 0.008149165 0.33989704
0003c0 44 fb 1b bc 5d 25 df 3d 81 92 d6 bd d7 64 bc 3e
       -0.009520356 0.10895798 -0.10477162 0.36795685
0003d0 4b 15 b6 3b f8 67 d0 3c 76 66 8c bd 9d 8c 97 3d
       0.0055567375 0.025440201 -0.068554804 0.07399867
0003e0 bd 58 1c 3e 58 75 63 3e b3 6a da 3d ad 7f e5 bd
       0.15268226 0.22212732 0.106648825 -0.11205993
0003f0 9b 6b 26 3e 7c 28 59 be 50 b2 35 3e 9d 69 d5 3d
       0.16251986 -0.2120685 0.17743802 0.10420535

linear2.bias f4 [4]
000000 40 0d ad bc 35 fb 1d bd c0 e8 a3 bc 96 d9 c3 3b
       -0.021124482 -0.038569648 -0.020008445 0.005976866
