model/model.pth (torch, 22336 bytes, 4 tensors)

linear1.weight f4 [256, 15]
000000 f3 20 44 bf ba c6 95 3d 88 e8 6e 3d a0 24 7a 3e
       -0.76612777 0.07313295 0.058327228 0.24428034
000010 92 38 e6 3d 6b 27 9e be 91 9f 31 3d 18 90 66 bd
       0.11241259 -0.3088945 0.043365065 -0.056289762
000020 0e 73 09 bd 9d 42 5f 3c 23 c5 0f 3e bf 77 32 bf
       -0.03355699 0.013626722 0.14040045 -0.6971397
000030 e2 7b 58 be 57 12 a8 3e 7f 25 54 3e e7 9a 5c be
       -0.21141008 0.32826492 0.20717429 -0.21543466
000040 41 05 17 be 1c 0a da bd 91 bc 35 be 85 f9 8f 3d
       -0.14748098 -0.106464595 -0.17747714 0.07030014
000050 a3 c8 bc bd 51 d9 bb 3d e0 2e 97 3e 6d 39 37 3d
       -0.09217956 0.09172309 0.2952795 0.0447325
000060 c2 3d c9 bc 65 b2 bf bd 69 6c 5f be 9a 24 f9 bd
       -0.024565581 -0.09360198 -0.21818699 -0.12165184
000070 cc 18 1b bc c7 4d 39 bd c1 29 46 3e 1f d0 03 3f
       -0.009466361 -0.04524019 0.19351865 0.5148944
000080 78 52 48 be db 83 fc be 50 70 25 bf 6f ab 9a 3d
       -0.1956271 -0.49319348 -0.646245 0.075522296
000090 07 42 18 3d 76 41 df be 89 c3 47 be 95 bb 39 3e
       0.037172344 -0.4360463 -0.19508184 0.18137963
0000a0 e3 7e 86 bc 30 11 8e be e8 e3 62 be dd fa 9e 3e
       -0.016417926 -0.27747488 -0.22157252 0.31050768
0000b0 66 5e a8 bd d0 32 15 3f a7 08 a3 be 3f 91 1f be
       -0.0822113 0.5828066 -0.3184254 -0.1558275
0000c0 e3 a7 a1 3e f5 26 0b 3d 9e ad 09 3e d4 e3 9e bd
       0.315734 0.0339727 0.13445136 -0.077582985
0000d0 52 84 76 3e 1d 7b 35 3e 36 77 a5 3e bf 8c 82 3e
       0.24073914 0.17722745 0.32317513 0.25498006
0000e0 b1 47 32 be be 72 68 bd b0 e6 0f be ba 11 55 3e
       -0.1741016 -0.05675005 -0.14052844 0.20807543
0000f0 a7 24 85 be 8d 5c 9a bd 1d c3 8b be ed cc 4a 3e
       -0.26004526 -0.07537184 -0.27297297 0.19804735
000100 c6 cd e9 be 3f aa 56 3e 62 c5 64 3d 0e 0a a6 bb
       -0.45664805 0.20963381 0.0558523 -0.0050671166
000110 23 82 19 3f 54 9b b6 3a c6 90 36 bd 63 e7 b4 3d
       0.599642 0.001393179 -0.04457166 0.08833196
000120 b0 2f eb b6 c0 e5 ed 3e dc a4 11 bf 54 20 7d be
       -7.0090973e-06 0.46464348 -0.5689218 -0.24719363
000130 96 ad bb 3e c8 ab 8a 3e ad 53 e3 be 9a ed 83 3b
       0.36655873 0.27084184 -0.44399777 0.004026127
000140 7c a1 dc bd 04 e6 37 be 74 4c b4 bd b8 61 79 3e
       -0.10772988 -0.17958838 -0.08803645 0.24353683
000150 77 86 0d bf 5d 9e 7c 3e 9a cb 0f 3e db e4 bf bd
       -0.552833 0.24669786 0.14042512 -0.093698226
000160 73 df 03 bf c4 35 39 3e b5 c3 8d be 58 2c a1 bd
       -0.5151283 0.18086916 -0.27688375 -0.07869786
000170 1f a1 bd bd 24 16 87 be 00 f1 14 be 2e bb 73 3d
       -0.09259247 -0.2638408 -0.14545059 0.05950468
000180 1c 48 d1 bd b9 b0 95 be 7e be 1e 3e 50 63 db 3e
       -0.10218832 -0.2923639 0.15502355 0.42849207
000190 69 a1 b2 3d f1 da fc 3d 61 8b 19 3d 88 75 ff be
       0.08722193 0.12346447 0.037486438 -0.49894357
0001a0 ef 86 d9 be 5e 91 d1 bd 7d 77 c4 be 09 55 c3 3e
       -0.4248576 -0.10232805 -0.38372412 0.38150814
0001b0 59 8f d9 3e d8 8d 1b be 36 8c 0d bf fb 02 4b be
       0.42492178 -0.15190828 -0.5529207 -0.19825356
0001c0 c1 13 e6 3e 54 27 0e bf 2c b6 36 bd a4 29 a3 bd
       0.44936946 -0.5552876 -0.044607326 -0.07966927
0001d0 1c 96 05 be e0 9b eb 3e 01 a3 a6 be 3d 78 70 3e
       -0.13045543 0.4601736 -0.32546237 0.23483367
0001e0 5f bc f1 3d 1c b4 92 be 21 19 66 be c6 54 b6 3d
       0.11803507 -0.28653038 -0.22470523 0.08902888
0001f0 8a fe 28 3c 8f 0c 49 3e aa 67 4f 3e 21 b6 f3 3e
       0.010314593 0.19633697 0.20254388 0.4759989
000200 dc 13 88 3d 5f 48 82 3e fb c9 1d 3e 95 cc 9e 3e
       0.06644413 0.2544584 0.1540908 0.3101546
000210 8a a5 c0 3d e7 7c 0f be 41 73 d0 be 69 64 c3 be
       0.09406574 -0.1401249 -0.40712932 -0.38162544
000220 6d 65 51 3e 59 54 c8 3e ce 7a bd 3e bd 65 9b be
       0.20448847 0.39126852 0.37007755 -0.30351058
000230 0b d7 1d bf 29 08 2a 3e cf e7 9b 3e 4f 43 68 bd
       -0.61656255 0.16604675 0.30450293 -0.056704815
000240 88 0f 1e be e4 69 49 be a4 87 e3 3d 04 d9 5f 3c
       -0.15435612 -0.196693 0.11109856 0.01366258
000250 e6 ca d2 be 93 6e 24 3d c0 1d 3c 3f 14 31 9b 3e
       -0.41170424 0.040144514 0.73482895 0.3031088
000260 0e 2e ab 3e 11 3f 42 be 35 08 f1 bd ec 39 86 bd
       0.33433574 -0.1896937 -0.117691435 -0.065540165
000270 26 fd cc bd fc 3c 85 3e 30 e0 aa 3e 71 83 91 3e
       -0.10009222 0.2602309 0.33374166 0.28420594
000280 3a a8 31 be f5 b7 5c be 49 d6 8a be 7e b5 1d bd
       -0.1734933 -0.21554549 -0.27116612 -0.038503163
000290 7a 68 30 be 69 fd f6 3e 74 4c bf be 06 fc 8e be
       -0.17227355 0.48240212 -0.37363017 -0.27926654
0002a0 5d f4 00 3f d7 4c 04 3f 18 52 07 be 5c a3 0c 3e
       0.5037287 0.5167975 -0.1321491 0.13734192
0002b0 18 c8 a1 bd 2b 63 be 3d 95 49 6b bd 55 62 25 3e
       -0.07899493 0.092962585 -0.05744322 0.16150792
0002c0 55 13 c7 bd f6 ca bc 3e 85 e2 ad be fd bf 91 bd
       -0.09720484 0.36873597 -0.33961883 -0.07116697
0002d0 4a 97 64 3e 4f 27 9d bd ef ee 62 3e 70 c1 da 3c
       0.22323337 -0.07673513 0.22161458 0.026703566
0002e0 a2 ee f1 bd 1d eb 09 be 79 ca b4 3c 19 c0 47 3e
       -0.11813094 -0.13468595 0.022069203 0.19506873
0002f0 ca a8 a8 be d5 46 69 bd 79 14 85 3d 9c b4 59 3e
       -0.32941276 -0.056952316 0.064980455 0.21260303
000300 d9 3f 72 be a0 83 a7 3b 8d 51 ba 3d 5a 22 ba 3e
       -0.23657168 0.0051121265 0.09097586 0.36354333
000310 7e 5e bc be 58 85 9e bd 72 2e 9d be c9 18 98 be
       -0.36790842 -0.07740277 -0.30699497 -0.2970641
000320 1a d5 31 3e 83 e8 5a 3e ad 45 8b bc 26 c8 dd be
       0.17366448 0.21377759 -0.017000997 -0.43316764
000330 dd 02 31 be 97 5d 2f 3d 92 b2 ab be 91 13 25 be
       -0.17286249 0.042813864 -0.33534676 -0.16120745
000340 61 1b aa bd e1 9e 99 3e 06 a8 fa be 29 0d 69 be
       -0.08306003 0.30004027 -0.48956317 -0.22758926
000350 fa 2b 68 bd 25 64 04 bd 8b 5d 30 bd 22 b3 f5 3e
       -0.056682564 -0.032322068 -0.04305796 0.4798823
000360 93 60 61 be 8a b2 ab bd ff 1c 0c 3e f1 cb 9b 3e
       -0.22009496 -0.08383663 0.13682936 0.30429032
000370 c3 f5 47 be 74 e3 a0 3e a6 8e 83 be 52 e3 3d 3d
       -0.19527344 0.31423533 -0.2569477 0.046359368
000380 8e 5d 4a 3c c2 e9 99 be 6c e7 42 be 47 35 69 bb
       0.012351407 -0.30061156 -0.19033593 -0.0035584734
000390 e6 40 91 3c f5 6c 1a bd 2d 8c ad 3c 58 86 fa bd
       0.017731141 -0.037701566 0.021185005 -0.12232655
0003a0 28 e1 fc bd a1 b0 de bd ef 70 12 3e 56 55 3d be
       -0.12347633 -0.10873533 0.14300893 -0.18489584
0003b0 7a 99 2d 3e 9a 6e 9f 3c 3c 97 3b bc 4e d4 28 bc
       0.16953078 0.019461919 -0.011449631 -0.010304524
0003c0 5f 97 e7 bd 15 d8 5e 3d 1c 82 3b be c8 ac 87 3d
       -0.113081686 0.05440529 -0.18311352 0.06624752
0003d0 7f 43 09 be bd f7 b5 bc fd 54 e5 bd 34 32 66 3d
       -0.13404654 -0.022212857 -0.11197851 0.05620022
0003e0 07 f2 46 be 22 cd d2 bd a3 df e8 3d a9 f8 6d be
       -0.19428264 -0.10293032 0.1137078 -0.23239388
0003f0 26 ca 2b be 88 06 12 3d 9b e1 31 3d 07 5d f3 3d
       -0.16776332 0.03565076 0.043428045 0.11882978

linear1.bias f4 [256]
000000 1f 97 11 3f 26 bb e3 bd e2 f0 b8 bd 88 c3 6b be
       0.5687122 -0.1111968 -0.0903032 -0.23023808
000010 2d 05 b1 3e 0b 75 26 3e d2 d4 20 be d0 08 42 be
       0.3457426 0.16255586 -0.15706185 -0.18948674
000020 52 f9 e8 be bc bf b0 bd cf 75 82 be bc ab e1 bd
       -0.45502716 -0.086303204 -0.25480506 -0.11019084
000030 72 56 03 bf 5e a3 b9 bc b0 10 24 3f 62 bf a7 be
       -0.5130378 -0.022660907 0.64087963 -0.327632
000040 4f 23 6b be 13 91 12 bd 6e 46 5e 3d 1c 2c db 3e
       -0.22962688 -0.035782885 0.054266386 0.4280709
000050 73 e2 10 be 77 04 ca 3e 1e f5 8a 3e 80 b7 48 3e
       -0.14148884 0.3945653 0.27140135 0.1960125
000060 4d 7b 97 3e 1a 87 8b be 13 ae 83 bb 42 a2 b3 bd
       0.2958626 -0.27251512 -0.004018554 -0.087711826
000070 db 94 4a be 32 15 08 3f ba 97 68 bd 1f ca e7 3d
       -0.19783346 0.5315734 -0.056785323 0.113178484
000080 5b 8f 4b 3d 03 bf b8 be 1c 44 4f 3b 02 fe 2a be
       0.04969726 -0.3608323 0.003162629 -0.16698459
000090 08 e5 ef bd 9b 5e f1 bd d6 be 91 3c f4 cc 80 be
       -0.11713606 -0.11785623 0.017791193 -0.25156367
0000a0 1d 40 9d bd e7 ff 61 3e 5e 11 c7 bd f1 be ac 3e
       -0.07678244 0.22070275 -0.097201094 0.33739427
0000b0 fc c0 a9 be cd f6 89 bd 19 82 26 3e c0 88 ae 3e
       -0.33155048 -0.06736527 0.16260566 0.34088707
0000c0 00 97 96 be cf 23 38 3d bf 5f 26 be 4c 29 7a 3a
       -0.2941208 0.044956025 -0.16247462 0.0009542897
0000d0 6b 6a fe bd 40 3f 35 3e 8d b8 b7 bb 23 78 9e be
       -0.12422641 0.17699909 -0.005606717 -0.30951032
0000e0 91 73 cc bc a4 31 32 be 45 52 d4 bd 9c 90 76 be
       -0.02495745 -0.17401749 -0.10367254 -0.24078602
0000f0 1c 18 0a 3b 47 69 62 3e 13 6f a6 be ab 89 98 be
       0.00210715 0.22110473 -0.32506618 -0.29792532
000100 76 8d 5f be 1f 2d 7e 3e 09 de e3 bd 4f 7e 69 be
       -0.21831307 0.248219 -0.11126334 -0.22802089
000110 1c 10 a1 3e 8f d1 20 3e bc c1 b3 3d ac f7 32 be
       0.31457603 0.1570494 0.08777186 -0.17477292
000120 6d 94 fd be a2 68 11 3e 70 8a 81 be 52 ae 9d 3d
       -0.49527302 0.1420007 -0.25300932 0.076992646
000130 61 3c d8 3d b2 e9 42 be 2f ff 26 be 99 a7 b4 be
       0.10558391 -0.1903446 -0.16308282 -0.35284117
000140 78 7f 52 be 1a f9 4b be c1 98 60 3c e8 e1 fd bd
       -0.20556438 -0.19919243 0.013708294 -0.12396604
000150 81 39 9a 3e 64 71 0b be 66 ee 9a 3e ee 8f 77 be
       0.30121997 -0.13617474 0.3026001 -0.24175999
000160 47 eb 0c 3e 64 02 64 3d 8a e6 92 3d 3a 8e 15 be
       0.13761626 0.055666342 0.07172878 -0.14605036
000170 73 28 a3 3e 46 20 e1 bd 51 3b d4 bc c4 b2 99 3e
       0.31866798 -0.10992484 -0.02590719 0.300192
000180 43 5e b6 3e 4f 35 45 be cc 9b 4f 3c fb 64 4a bc
       0.3561879 -0.19258617 0.012671422 -0.012353177
000190 69 1a 0b 3f 57 47 fb 3e c7 ed 34 bd 8d c7 a3 3e
       0.54337174 0.49077865 -0.044172075 0.31988183
0001a0 2b 95 99 be 24 45 5f 3e 8f cf c1 3e c8 a0 08 bc
       -0.2999662 0.21803719 0.37853667 -0.0083391145
0001b0 1d f8 23 be 8f 50 06 3f 9a 80 91 3e 77 92 75 be
       -0.16012616 0.5246667 0.28418428 -0.23981653
0001c0 49 b6 04 be f9 49 03 3e 7e 95 10 be f0 db 34 be
       -0.12960161 0.12821187 -0.14119527 -0.17662024
0001d0 bd 33 1b be 0a 63 5d be 12 26 c9 bd 93 3c 20 3e
       -0.15156455 -0.21619812 -0.098217145 0.15648107
0001e0 0c 55 35 3e 7b 5d 8d bd eb e6 7b 3e 1b 81 d8 3e
       0.17708224 -0.069025956 0.24599807 0.42286
0001f0 17 a4 5e be ae 7c a6 3e c9 0e 92 bd d4 45 8f 3e
       -0.21742283 0.32516998 -0.07131726 0.27982962
000200 b1 6f 0d 3f 48 13 b1 3e 87 85 8f be 47 5d 9a 3d
       0.5524855 0.34585023 -0.2803156 0.075373225
000210 12 bd 5b ba 39 87 59 be 35 98 24 3e 22 4d 00 be
       -0.00083823607 -0.2124299 0.16073687 -0.12529424
000220 3c c8 3a be 78 ab 29 bd 60 68 33 bd 3d 2d 2a 3e
       -0.18240446 -0.04142329 -0.04380071 0.1661882
000230 96 7f 87 3d 12 cf 82 3e ab 86 02 be eb 65 df 3d
       0.06616132 0.25548607 -0.12746684 0.10908111
000240 d5 17 70 bc 73 75 9e bd 83 7c 45 3e 71 7b e9 bd
       -0.0146541195 -0.077372454 0.19285779 -0.11400498
000250 ef fb c8 bc ce 60 e6 3e ae 8e 00 3e 97 0f 30 3f
       -0.024534194 0.4499573 0.12554428 0.6877379
000260 bc af 04 be 4f 9d aa 3e 84 4a 82 be a5 79 8f 3e
       -0.12957662 0.33323142 -0.25447476 0.28022495
000270 0b 38 2e 3f 4a 15 ec bd 6a 0f e3 3d 5b f6 17 be
       0.68054265 -0.11527498 0.110869244 -0.14840071
000280 94 f7 3b be 8d d1 31 be d2 8e c2 3e 3a 1e ee be
       -0.18356162 -0.17365094 0.37999588 -0.46507436
000290 25 7b 8e 3e aa 84 d9 be f9 66 2b be ad a1 42 be
       0.27828327 -0.42484027 -0.167385 -0.19006987
0002a0 24 d4 22 be 5c cb 89 be b0 af 98 bd 0b 4e 50 3e
       -0.15901238 -0.26912963 -0.07455385 0.20342271
0002b0 63 d1 3e be fe f8 d1 3d 11 d5 0e 3e d7 98 bb 3d
       -0.18634562 0.102525696 0.13948466 0.09160011
0002c0 d5 76 af be a6 6a e3 3c 07 21 11 3f 05 64 41 3e
       -0.3427035 0.027760815 0.5669102 0.1888581
0002d0 78 24 39 be 17 be a6 3e dc d6 a8 bd fe 2c 9e be
       -0.18080318 0.32566902 -0.08244106 -0.308937
0002e0 51 c4 6a 3e 52 54 e9 be 13 9a 28 3f 41 f9 6a be
       0.22926451 -0.45572144 0.658601 -0.22946645
0002f0 8e f5 84 bd 6a 05 39 3e dd 0c 54 3d 02 20 ae be
       -0.06492148 0.18068472 0.05177008 -0.34008795
000300 b5 a0 2e be 7e 4b eb be 19 7e 88 be 20 1a dd bc
       -0.17053492 -0.45956033 -0.26658705 -0.026989996
000310 6f d1 19 be 91 c9 a7 3e 3f 47 90 3e 95 ec b1 3e
       -0.15021299 0.3277097 0.28179356 0.3475081
000320 93 bf f9 bd dd e9 c6 bc 66 03 8e be 4d 4e e0 3e
       -0.12194743 -0.024281437 -0.27736968 0.4380974
000330 87 48 b7 3e 30 80 94 3d 20 f8 33 bd 74 83 6e be
       0.3579752 0.07251012 -0.043937802 -0.23292333
000340 2e ca dd be 6e c7 18 3d f3 d7 05 3d 33 33 fd be
       -0.43318313 0.037299566 0.03267665 -0.49453124
000350 9f 8a 13 bc 3f f5 17 3e 82 fe eb bd 22 e9 70 3e
       -0.009005218 0.14839648 -0.11523153 0.23526433
000360 a6 c5 1d bd 77 90 9d bd 0c d3 dd be bf 7e 61 3f
       -0.03851857 -0.0769357 -0.43325078 0.88084024
000370 d3 f9 8a bd 57 16 1a bd 62 f1 80 be 5f c1 05 be
       -0.067859314 -0.03761896 -0.2518416 -0.13062046
000380 38 32 65 3e af 86 a6 3e 13 a8 97 3d 9f b6 94 be
       0.22382438 0.3252463 0.074051045 -0.2904558
000390 93 34 d9 3e fc ca 43 3e e6 c8 e6 3d a6 5d ca be
       0.42422923 0.19120401 0.11268787 -0.39524573
0003a0 be 59 de bc b5 69 82 be f6 9e fb 3c db 7b ef bd
       -0.027142402 -0.25471273 0.030715447 -0.116935454
0003b0 e1 ed 50 be 05 33 11 3f 8d 81 19 be 0a 31 3e bd
       -0.20403244 0.56718475 -0.14990826 -0.046433486
0003c0 2b 5a 84 3d 9a fb b4 3e 00 31 94 3e 80 d5 9f be
       0.06462511 0.35348207 0.28943634 -0.31217575
0003d0 f0 54 c7 bd f1 a4 ac 3e 1b 3b 48 3e fb b9 f9 3d
       -0.097329974 0.3371959 0.19553797 0.12193676
0003e0 48 25 be 3b 7c 4b d6 3e b9 8a cb 3e 98 c6 28 be
       0.005802784 0.41854465 0.39754274 -0.16482008
0003f0 0e 70 d1 bb da d2 b9 be f5 51 73 3d c5 51 32 be
       -0.006391532 -0.3629368 0.059404332 -0.17414005

linear2.weight f4 [4, 256]
000000 00 ec e6 3e 79 f5 19 3d 4a 57 a2 3e fb e8 89 be
       0.4510193 0.037587617 0.3170722 -0.26935562
000010 9c 9d ef 3e 0a 3c 64 3e 35 b7 07 bc aa 55 ac 3c
       0.46799934 0.22288528 -0.008283426 0.021036942
000020 5e e7 8d 3e 03 8a 5c 3e 13 ad 03 be 9a cd 0f be
       0.27715582 0.21537022 -0.12858991 -0.14043275
000030 3b f3 59 bd 62 85 5d bd 3d 19 78 3e e0 2e de bd
       -0.05321048 -0.054082282 0.24228378 -0.108487844
000040 f0 d5 e5 ba 11 4d 80 bd 37 7e 21 3c b2 d6 d3 3e
       -0.0017535072 -0.06264699 0.009856752 0.41374737
000050 37 18 dc 3a c5 96 d4 3e 37 54 51 3e 80 6d 21 3e
       0.0016791885 0.41521278 0.20442282 0.15764427
000060 fc c3 94 3e 88 c6 36 be 41 91 8a 3d c0 e8 a5 bd
       0.29055774 -0.17849171 0.06765986 -0.08101034
000070 97 8c 73 bd 32 2b e8 3e 32 c4 58 3e 87 0a 05 3f
       -0.05946025 0.45345455 0.21168593 0.5196919
000080 94 78 79 be 74 ef 9f 3c bc 2c 9f be 90 45 6c 3c
       -0.24362403 0.01952336 -0.31088817 0.014420882
000090 2e b6 0a be 65 5e 17 3e d2 bc 47 3e 55 dc ba 3c
       -0.13546059 0.14782102 0.19505623 0.02281014
0000a0 fb 22 bf 3d 1e 29 7b 3e 82 c0 e0 be 2b bd 40 3e
       0.09332844 0.24527404 -0.43896872 0.18822162
0000b0 52 68 d9 bd 16 bb d2 bc d2 cf b3 3e 86 02 1f bf
       -0.10615601 -0.025723975 0.35119492 -0.62113225
0000c0 79 71 77 3e 24 98 b3 3d b8 49 1d be 84 bc b5 3e
       0.2416438 0.08769253 -0.15360153 0.35495389
0000d0 62 f5 87 be c6 c1 5c 3e 5f 4d 43 3e 0a ed c6 be
       -0.265544 0.21558294 0.19072483 -0.3885272
0000e0 5a ec f7 3e 9c 7b ec be 9f df 3a be 43 db 14 3b
       0.4842251 -0.46188056 -0.18249367 0.0022713698
0000f0 c0 af aa be 5a ef e4 bd 51 80 f7 3e ab f5 07 be
       -0.33337212 -0.11178465 0.48340085 -0.13277309
000100 ca d8 38 bd 8b 40 13 3e 80 a9 ad be cc c6 62 bd
       -0.04512862 0.1438009 -0.3391838 -0.05536537
000110 da 5b 9d 3c fa c6 0e be e9 2d 87 be 75 29 ce bc
       0.019208837 -0.13943091 -0.26402214 -0.025166253
000120 e7 28 20 3e 3b 28 af be 08 44 fb 3d 18 83 7d 3e
       0.15640603 -0.3421038 0.12268835 0.2475704
000130 93 49 b3 3e db 98 c6 3b d0 c4 4a 3e 86 66 cf 3d
       0.3501707 0.0060607023 0.1980164 0.10126977
000140 4e 0e c2 3c 8b ba 92 3e 56 4a f5 bd 7b e5 8a 3e
       0.023688462 0.28657946 -0.11977069 0.27128205
000150 60 77 c7 3e d8 1f 36 3c 6f da a2 3e f2 93 36 be
       0.38958263 0.011115991 0.31807277 -0.17829874
000160 28 0b 5c 3e 78 2d f1 3d 0f 62 10 3e 9b 06 94 3e
       0.21488631 0.117762506 0.14099906 0.2891129
000170 ee 6a 2d 3e 3c 16 16 bd b9 56 33 be ac 41 b9 3e
       0.16935322 -0.036642298 -0.17513551 0.36182916
000180 c3 09 ac 3e eb 28 90 be 24 8f bb bd 05 5a 7a 3d
       0.33601198 -0.28156218 -0.09158161 0.061121006
000190 d5 cb 1d 3e 91 21 c3 bd 33 57 87 3d 33 21 80 bd
       0.15409787 -0.09527887 0.06608429 -0.06256332
0001a0 da 4a 2e 3d 89 d7 06 3f d4 5a e0 3e 47 54 33 be
       0.042551853 0.5267263 0.43819296 -0.17512618
0001b0 e9 69 f2 3c d2 d2 c6 3e 9d 90 81 3e 9a 65 5c 3d
       0.029591518 0.38832718 0.25305644 0.053807832
0001c0 af 74 73 bb 66 1a 46 3e aa 61 14 be 4f 02 39 3e
       -0.0037148406 0.19346008 -0.14490381 0.18067287
0001d0 2a 1e 84 be c8 f2 39 bd 1c 40 21 3e 6a 41 9d bb
       -0.25804263 -0.04539755 0.15747112 -0.0047990577
0001e0 93 f4 7d 3e f8 c5 2b be 54 b4 6b 3c 9e 03 97 3e
       0.24800329 -0.16774738 0.014386255 0.29494947
0001f0 77 6c 98 be f8 c2 ae 3e e6 8f 8e 3d 7e b9 87 3e
       -0.29770252 0.34133124 0.0696104 0.26508707
000200 07 a3 d3 3e de c7 b5 3e 62 bd c5 3c dc 55 39 3f
       0.41335317 0.3550405 0.024138156 0.72396636
000210 3b 34 9c bc d6 25 7b be 18 af f2 be e3 f5 43 3e
       -0.019067874 -0.24526152 -0.4739921 0.19136767
000220 78 e9 17 3d 16 21 36 be b1 b3 4f 3e 9f 65 3e bd
       0.037087888 -0.17786059 0.2028339 -0.046483632
000230 59 fb b0 3c 97 e1 ba 3c 33 b2 8c 3d e6 1c 44 3d
       0.021604227 0.022812648 0.06869926 0.047879122
000240 b7 9c 56 3e 2e c8 b8 be 1a f4 6b 3e fe 39 4f 3c
       0.2095822 -0.36090225 0.23042336 0.012648104
000250 24 49 ea bb 7b 2d b0 3e 2c 49 d0 3e a9 01 f7 3e
       -0.0071498323 0.344097 0.40680826 0.48243454
000260 14 c2 d4 3e d4 4c 8e 3e f6 32 51 3d 0b c6 b6 3e
       0.4155432 0.2779299 0.05107399 0.3569797
000270 cd c2 f1 3e 94 6b a3 3d 85 35 e0 3e 5e 90 79 be
       0.47218934 0.07979503 0.43790832 -0.24371478
000280 ca ff 5e be 8b 45 12 bc aa 98 b3 3e 34 7c d2 3d
       -0.21777263 -0.008927713 0.3507741 0.10277596
000290 24 34 92 3e 52 19 98 bd 63 2d 0a 3d fc 1b 19 3e
       0.28555405 -0.074267045 0.03373469 0.14952081
0002a0 5f 60 3c be cc a8 ef 3d 30 bb 5f bc 10 fc c2 3e
       -0.18396138 0.11702117 -0.013655469 0.38082933
0002b0 58 4c 35 be 71 6c 4b be 3d c3 aa 3e a6 f7 46 3e
       -0.17704904 -0.19865586 0.3335208 0.19430408
0002c0 5d e3 01 3e 64 08 04 3d 92 cc b8 3e d1 86 a9 3e
       0.12684388 0.032234564 0.36093575 0.3311067
0002d0 5d 1b 5d be 3b 10 2e be 5d 32 38 bd 10 82 6c be
       -0.2159247 -0.16998379 -0.044969905 -0.2309649
0002e0 f8 a1 de 3e 8e d0 87 be 29 5d e3 3e 8d d1 f4 be
       0.43482947 -0.26526302 0.44407013 -0.47816125
0002f0 7f d7 1c be 50 61 f3 3e 26 cb 56 3d e0 8f 70 bd
       -0.1531658 0.4753518 0.05243983 -0.05873096
000300 a8 fa e7 be cc 97 5b bd 0e 21 87 3d ed 66 99 3e
       -0.45308423 -0.05361156 0.065981016 0.2996134
000310 f8 1e 95 bd 5b 3e ad be a8 61 35 3d da 1c 34 3d
       -0.072812974 -0.33836636 0.044282585 0.043972827
000320 8a 41 98 bd 32 85 d5 3c 05 93 e1 bd d7 80 eb 3e
       -0.074343756 0.026064489 -0.1101437 0.45996734
000330 d6 89 80 3e c0 dd 95 3e ea ce 91 be b1 99 47 3f
       0.2510516 0.29270744 -0.28478175 0.7796889
000340 43 c9 03 bf 71 57 9a 3c d8 f6 df 3c 53 77 87 bd
       -0.51478976 0.018840523 0.027339384 -0.06614556
000350 45 16 b0 bd 41 dd 0f 3e 01 6f da 3e 30 b1 bb 3d
       -0.085979976 0.14049245 0.42662814 0.09164655
000360 9e 51 d9 3d 81 5f 73 bd b8 98 12 bd 70 5e e8 3e
       0.1061127 -0.05941725 -0.035790175 0.4538455
000370 3e 1b c8 bd ea f1 0e 3e b6 1a 85 bd ff 0f 3d 3e
       -0.09770821 0.1395947 -0.06499235 0.18463133
000380 cd 95 89 3e 26 df c3 3e 77 ec 68 3e 0d e9 05 be
       0.268721 0.38256186 0.22746454 -0.13077183
000390 f0 84 bf 3e d1 bf ac 3e 52 da 65 3e 44 6a 9b 3e
       0.3740611 0.33740094 0.22446564 0.30354512
0003a0 46 ce 63 bd 18 57 db 3d 70 40 c4 3d 69 d6 80 be
       -0.05561664 0.10709971 0.09582603 -0.25163582
0003b0 dc 75 52 be 3b 46 0d 3f bc 99 a4 be a7 d3 13 bd
       -0.20552772 0.5518529 -0.3214854 -0.03609052
0003c0 8c cb c2 bd c5 d8 be 3e 26 a4 a4 3e 15 c4 00 be
       -0.0951148 0.37274757 0.32156485 -0.125748
0003d0 82 de b6 be 64 c0 8c 3e de 80 f4 3e ba 9c 40 bd
       -0.35716635 0.27490532 0.47754568 -0.047024466
0003e0 9c a0 c6 be ca de 77 3e 80 43 c5 3e 6e 77 5e 3d
       -0.3879441 0.24206081 0.3852806 0.054313116
0003f0 6a 30 8e 3d 4e c9 90 3e e3 d3 fa 3d c4 dc c8 3d
       0.06942828 0.28278583 0.122474454 0.09807733

linear2.bias f4 [4]
000000 0b a6 a3 3e 5f b0 9d 3e 12 25 0e 3d 36 13 fb 3e
       0.31962618 0.30798623 0.03470332 0.49038094
